backend/model/results/model.pth (torch_old, 88700 bytes, 8 tensors)

conv1.weight f4 [10, 1, 5, 5]
00000000: ef43 bd3e 7170 7c3e 9d81 ed3e 7e7c d13e
00000010: f5c3 bb3e 3acc cc3e ba46 f13c f324 90bd
00000020: 0801 82bd 74c4 5fbd 8323 2e3b ae57 46be
00000030: a65d dbbd 6d09 90bd 4d11 cebd 2851 15be
00000040: 84c0 e3bd 3437 aebd 5c5d a5be a9f4 fbbd
00000050: ad21 f0bd 46ec 06be ddcd f8bd bc00 6bbb
00000060: 529a 1c3d 17e8 853e 01c7 4f3e fc25 89be
00000070: 9ad4 8fbe 6584 b8bc 8755 fd3d c7b7 c03d
00000080: 46c1 69be 5b01 11be 42c9 fabc 1f46 853e
00000090: 4148 23be fed3 63be a2c2 98be c081 9f3d
000000a0: 56f4 0b3d 25a0 29bc 2bc6 87be 693f f9bd
000000b0: 29fe 5f3e 4f83 6dbd 35d0 58be 8314 45be
000000c0: f261 3fbe 416f 703e 8a48 39be a155 b13c
000000d0: df27 4e3d a0bc efbd 5051 813d 3f2b 72be
000000e0: e11e 9ebe 9a02 b2be 2a44 2cbe d649 11be
000000f0: ba43 3abe 2ebe 4ebe abd5 41bd 96be 51be
00000100: 2bf9 ca3d 817e 06be 4122 1c3d c5a1 d13d
00000110: c8c2 033e e24c 8a3e a920 82bd 1ee3 863e
00000120: 51af f93d 8057 5f3e ed4b 683e 32b4 3a3e
00000130: 38ec d03e fecb 4d3e c1f5 c73c a128 01be
00000140: 7919 843e 532e 563e 21ce 4f3e f28a 00be
00000150: 131d adbe de73 b73e 3478 f03e 968f 1bbe
00000160: 0ae3 94bd 1872 89be 4a1a b03e 19e6 653e
00000170: 578c 91bd 41c2 a4be 7015 96bc 59b3 be3e
00000180: 8f6f b3bd 65bd 093d c1e5 66be f404 97be
00000190: f714 1f3e fba1 acbd 3fd7 873e 58a1 953c
000001a0: 7160 933e 4166 c03d f986 09be 4601 573e
000001b0: 3ea0 fd3e fdd2 ce3e 59b3 bebd 2cde b3bd
000001c0: 9dd3 163e 150e bf3e 3cd7 c43e 26ae d5bd
000001d0: c51e a73c e98f 5fbe 29d3 adbd 238a 483e
000001e0: d3ea 36ba f2ac 03be 4404 71be 20f1 2ebe
000001f0: b4de 673e 9ab8 82be 869d 97be c2ae 93be
00000200: 8385 52be e00c f8bc ecf4 19be 70ad 8abe
00000210: 8a74 10be b195 0c3d 6694 113e 9163 64bd
00000220: f1ff 03be 3547 9c3e 6ade 563e 9af9 b93c
00000230: 9719 593e 6c75 c73e e38b 643e a9fa a13d
00000240: c58f 01be f972 9f3e d475 fa3d 33c2 b7bc
00000250: 143e 253d 5c0d 763c b269 103e 306a a43d
00000260: e7b3 8abc 0c73 59be 5f32 f1bd cd32 53bd
00000270: 088b 64be c0e8 c0be 0303 3dbe 52b8 30be
00000280: e5fe 563b 7220 88be 9b53 5fbe 5896 b1bc
00000290: 1792 c53d 2a95 45be a610 87be 6a52 afba
000002a0: 277a c93d 56f5 e13d 5682 0fbe 6770 88be
000002b0: 2fde 0fbe 3972 643e a05c 8d3e 3b2d bcbd
000002c0: 72b1 863d 4185 78be c8ee aebe cda0 3bbe
000002d0: f6d6 e9bd 9b52 7ebd 18d7 a9be 394e d2bd
000002e0: d577 4c3d 2ccf e7bd e063 77be c5e7 71be
000002f0: fe5b 8bbd e6da 863e 9666 48be 83bd 37be
00000300: 5b2a 33be 9705 96bc bd1b b63e 928f 78be
00000310: 25c8 7dbe b130 5f3b 1a65 45bd 13ab b33e
00000320: a212 103e 4d8c 973e 3eb8 683e 2bdf 3f3e
00000330: b796 8bbd 6f21 8b3d ca3e 803e 9cb4 253d
00000340: 4249 ccbd 38ce 463e f272 66be 684f f7bd
00000350: bfad 45bc 2370 31be d643 3ebe 0fe9 ccbd
00000360: 3215 64be 30d0 a4be 2dd4 cebb 8e52 333d
00000370: 693f 373e 08ed 613c c843 fabd b764 9cbd
00000380: dc13 1fbd 1e19 8a3d 6fc1 113d e254 68bd
00000390: a587 f5bd 463e d7bd 7583 883d e288 123e
000003a0: 050d 0abe 4549 8ebe f0d6 a1be 1b94 433d
000003b0: 0068 c33c 3118 e33d 85c0 afbe 160f 60be
000003c0: b4db f039 120d 0a3e f04e 9b3e 1e31 b43e
000003d0: c04f 8f3d e7d8 da3d 9e96 593e 97af 9f3e
000003e0: 707c c13e fe89 053e
0.36965892 0.24652268 0.4638795 0.40915293 0.3667294 0.39999563 0.02945267 -0.070382975
-0.06347853 -0.05463071 0.002657146 -0.19369385 -0.107112214 -0.07033048 -0.100618936 -0.1458174
-0.11120704 -0.08506623 -0.3229779 -0.123025246 -0.11725173 -0.13176069 -0.1214864 -0.0035858592
0.03823311 0.26153633 0.20290758 -0.26786792 -0.2809189 -0.022524068 0.12369829 0.09410053
-0.22827634 -0.14160673 -0.030613545 0.2603006 -0.15945531 -0.22248837 -0.29835993 0.0778842
0.034168564 -0.010353123 -0.26518378 -0.12170298 0.21874298 -0.057986554 -0.21173175 -0.19246106
-0.18689707 0.2347994 -0.18094078 0.021647276 0.050330993 -0.11705899 0.06314337 -0.2364931
-0.30882934 -0.3476761 -0.16822878 -0.14188322 -0.18189898 -0.20189735 -0.04732291 -0.20482859
0.09910806 -0.13134195 0.038118605 0.10235933 0.12867272 0.27011782 -0.06353886 0.26345152
0.12191642 0.21810722 0.22685213 0.18232802 0.4080522 0.20097348 0.024409177 -0.12613155
0.25800684 0.20916109 0.20293476 -0.12553003 -0.33811244 0.35830587 0.46966708 -0.15191492
-0.07269867 -0.2684486 0.34395057 0.22451057 -0.07106846 -0.32179454 -0.01832077 0.37246206
-0.087615125 0.033627886 -0.22548582 -0.29495966 0.15535341 -0.08429333 0.26531407 0.018265411
0.28784516 0.093945034 -0.13430394 0.2099658 0.49536318 0.40395346 -0.093115516 -0.0878261
0.14729162 0.3731543 0.3844546 -0.10433607 0.020400414 -0.21832241 -0.08487541 0.19583945
-0.00069777406 -0.12858942 -0.23536783 -0.1708417 0.22643548 -0.25531465 -0.29612368 -0.28844267
-0.20558743 -0.030279577 -0.15034837 -0.27085447 -0.14106956 0.034322444 0.14216766 -0.055759016
-0.12890603 0.30523077 0.20983282 0.022702027 0.21201168 0.38956773 0.22318988 0.07909138
-0.126525 0.31142405 0.12229505 -0.022431469 0.040342405 0.015017834 0.1410282 0.08028066
-0.016931487 -0.21235293 -0.11777186 -0.05156212 -0.22318661 -0.37677574 -0.1845818 -0.17257813
0.0032805738 -0.26587254 -0.21809237 -0.021678135 0.09647005 -0.19295183 -0.2637989 -0.0013376002
0.09837752 0.11033122 -0.14014563 -0.26648256 -0.140496 0.22309197 0.2760973 -0.091883145
0.06576814 -0.24269582 -0.3416655 -0.1832306 -0.11417954 -0.062090497 -0.33171916 -0.10268826
0.04991897 -0.11318812 -0.24159193 -0.2362357 -0.068046555 0.2633888 -0.19570383 -0.17943387
-0.17496626 -0.018313212 0.35568038 -0.24273518 -0.2478338 0.0034056122 -0.04819212 0.35091457
0.14069608 0.29599229 0.22726533 0.18737476 -0.06815856 0.06793486 0.25047904 0.040455446
-0.0997491 0.19414604 -0.22504786 -0.120756924 -0.01206535 -0.17327933 -0.18580565 -0.1000539
-0.2227371 -0.32190084 -0.0063119144 0.043779902 0.17895283 0.013789423 -0.122199595 -0.07636397
-0.0388373 0.06743072 0.035584863 -0.056721576 -0.11988763 -0.105099246 0.066656984 0.14310029
-0.13481529 -0.27790275 -0.31609297 0.047748666 0.023853302 0.110885985 -0.34326568 -0.21880755
0.0004594006 0.13481548 0.30333662 0.35193723 0.06997633 0.10685902 0.21248862 0.31188652
0.3779025 0.13040921

conv1.bias f4 [10]
00000000: defb 483e cda1 383d 24d0 4abd d8eb 31be
00000010: 7c78 cb3e 6f56 1e3d 5e18 2f3e b02d 103e
00000020: 9999 723e dd52 783e
0.1962733 0.04507618 -0.049514905 -0.17375124 0.3974036 0.03865665 0.17099139 0.14079928
0.23691405 0.2425036

conv2.weight f4 [20, 10, 5, 5]
00000000: 6bd7 4d3d 96a8 213c 204e 423c 426b 993d
00000010: 3c55 2dbb 4c42 29bd 7c1a 40bd c3d0 2e3c
00000020: f3a6 1b3b b124 ed3d a5b9 c93c b13f 933d
00000030: 8ed6 f83d c64d f73c 9ebf e93c 7739 893d
00000040: 276d a63d 75cf 823c 34e0 0bbc 33e3 84bd
00000050: b911 b5bc dfca cb3c 38d4 a0bc 2c75 70bd
00000060: ddd4 58bd e335 3abd a06c a23c 0602 8e3d
00000070: 26ed f23b 215a 413b ba10 5dbd da4a d43b
00000080: eaa2 fb3a 05df 563d 9ecd 26bd 4d34 c13c
00000090: 096a babb 7f4d 36bd d6b3 71bd 4215 34bd
000000a0: 30f3 78bd 3191 68bd 2c05 acbd 6d7c f0bd
000000b0: 023d 54bd 0b1f 59bd e891 18bc be60 20bd
000000c0: 77e5 72bd a591 6d3c 9cd4 873c 02b8 9f3d
000000d0: b01f d13d 79bd 303d a409 bfbc 4b1e 42bd
000000e0: 0cba 563d 7108 93bc 2e88 3d3d 0995 de3c
000000f0: 4ef2 28bc 5dad ce3c 9a3f 94bd a632 5b3c
00000100: 60ec 883c de49 443d 7767 e93d c40b 0f3e
00000110: a2a7 bc3d c77b 8e3b 81a7 bf3c 4436 963d
00000120: fba1 7ebd 30a2 b83c bf93 98bc 0f80 ffbc
00000130: f503 67bd 554d 293c 3cc0 0f3c ddc9 9e3d
00000140: a5a7 3ebd 8e93 3fbc 9573 2abd f92c cd3c
00000150: 0cf5 bcbb d8cf 78bd 63bc a6bd 61a8 46bd
00000160: de75 7abd e8bd 1fbd e2f6 05be 7109 1ebe
00000170: a1ab e3bd 87ef 1fbe fcf1 b5bd defa 6ebd
00000180: 76a5 ebbd 5790 1abe 25a9 c3bd c589 a1bc
00000190: a7c0 82bd feed 6dbd c905 0fbd eda3 123d
000001a0: eaf4 41bd 729d 1bbd dafd 86bc 05a9 a83d
000001b0: accd 0c3d 5623 b33c ff87 bc3d 2f02 8e3d
000001c0: ace2 aa3b 3d02 6bbd 61ef 19be 915d 80bd
000001d0: 9e49 d9bd b05f 11be a1ec f1bd 46c7 10be
000001e0: 74dd a13c 2fb1 673d d516 b53b bd28 96bd
000001f0: 66ce 93bd 5694 ad3b e7cb 89bb fa05 893d
00000200: 8c17 2d3c 649d 033d 0fbf 883b 210e 5d3d
00000210: 9f25 b93d df6e 2b3d b894 dd3c 6e80 a0bc
00000220: 7397 88bc 1694 b0bd 702f b53c 024b 87bd
00000230: ae7a 23bd 87fe abbc c566 7c3d 5c70 e43d
00000240: b3f9 ac3d 049f b63d 835d 803c 06f7 c13d
00000250: c244 c83d cae2 3abc f9d1 bd3c 15c6 533d
00000260: 278b 383d f141 713c c985 8d3b 134e 65bd
00000270: c3af b1bc 65c6 333d 83b3 3cbd 6b99 bebd
00000280: bd9b babc 3e5b 2a3a c11f 95bd 2754 e13c
00000290: 10de 7cbd fdcc 0e3d 9b62 9f3d 1cda 843d
000002a0: 6d2a 25bd 4da8 563d 2bd0 ca3d 165d b93d
000002b0: 3644 0d3d 8f55 5c3d 5b77 29bc 1033 41bd
000002c0: 7862 c1bb ae27 633d 95ee 7e3b 668d 5e3d
000002d0: f1dc 5abd d176 a43d 2bb9 823d d2e4 48bd
000002e0: 47dc 5a3c 7a6f 843c 5d75 b3bd f20a 2cbd
000002f0: bc99 73bd f816 23bd 498e a53d e905 ffbc
00000300: 83f4 a8bd 6a0b edbc 9d2b 803d a387 003d
00000310: c99c 553d e091 1fbd e47f f73b f489 03bd
00000320: eee2 933d a9bf de3c 476b c23c d394 0bbd
00000330: e364 9e3d 7e82 e63c cd66 283d adae 70bd
00000340: 04c7 fd3b 443d 5a3d 3ff1 403d 027c 063d
00000350: bbe5 e23d 88b4 d23d d45e 6d3d e313 4fba
00000360: 8182 a63c af24 a03d 9b3d dabc bb48 723d
00000370: 253a 4ebd fcf9 a8bc 8435 03bd 10de 17bd
00000380: fa42 833b 82cc 55bd 28b0 663d cd36 a83c
00000390: d006 373d 50ba 04bd df97 8e3d cf66 89ba
000003a0: c66a adbc fb6e e5bc b823 403d a259 753d
000003b0: 3dd4 31bc 16d9 fd3c 6c09 40bd 2a44 3d3d
000003c0: e006 a93d 3887 bd3d 7816 f23c 302d 843c
000003d0: 54ad aebd 9c06 34bd 0a2c 023d 6fa3 ecbc
000003e0: b1d7 363d 72ca 303c d731 07bd e6c4 7fbc
000003f0: 17be 843d f180 bf3c f99c 13bc c8ff 52bd
0.050254267 0.009866854 0.011859447 0.07491161 -0.0026448509 -0.04132299 -0.046900257 0.01066989
0.0023750633 0.11579264 0.024624655 0.071898825 0.12150298 0.030188452 0.028533753 0.06700414
0.08126288 0.015968064 -0.008537341 -0.06488647 -0.022103177 0.02487701 -0.019632444 -0.058705494
-0.052937377 -0.045461547 0.019827187 0.0693398 0.007413524 0.0029503184 -0.05397103 0.0064786496
0.0019198332 0.05245878 -0.040723436 0.02358451 -0.00568891 -0.0445075 -0.059009396 -0.043965586
-0.060778797 -0.05677909 -0.08399424 -0.11742482 -0.051815994 -0.05300812 -0.0093121305 -0.03915476
-0.059300866 0.014500056 0.016580872 0.077987686 0.10211122 0.043149445 -0.023320027 -0.04739217
0.052423522 -0.017948361 0.04627245 0.027170675 -0.010311676 0.02522915 -0.072386935 0.013378775
0.016714275 0.047922008 0.113966875 0.13969332 0.09211661 0.0043482515 0.023395302 0.07334569
-0.062166195 0.022538275 -0.018625138 -0.031188993 -0.056400258 0.010333379 0.00877386 0.07753346
-0.046546597 -0.011692895 -0.041614134 0.025045859 -0.0057665166 -0.06074509 -0.08141401 -0.048500422
-0.061147563 -0.038999468 -0.1308246 -0.15433289 -0.1111672 -0.15618716 -0.088840455 -0.058344714
-0.115061685 -0.15094124 -0.09553746 -0.019719014 -0.06384402 -0.058088295 -0.034917627 0.035800863
-0.04735271 -0.03799195 -0.016478468 0.08235363 0.03437583 0.021867435 0.09205627 0.0693401
0.0052150097 -0.05737518 -0.15032722 -0.062678464 -0.106097445 -0.14196658 -0.118127115 -0.14138517
0.019758917 0.05656546 0.0055264034 -0.07331989 -0.07217102 0.005297224 -0.0042052153 0.06690593
0.010564696 0.03213252 0.0041731666 0.053968553 0.09040379 0.04185378 0.027048454 -0.01959249
-0.01667378 -0.08621995 0.022117347 -0.066061035 -0.03991192 -0.020995392 0.061621446 0.11154243
0.08446064 0.089170486 0.01566959 0.09470944 0.097787395 -0.01140661 0.023171412 0.051702578
0.04505458 0.014725194 0.004318927 -0.05598266 -0.021690255 0.043890376 -0.046069633 -0.09306606
-0.02277934 0.00064985815 -0.07281447 0.027505947 -0.061735213 0.03486346 0.077824794 0.064869136
-0.040323664 0.052406598 0.09902986 0.09050958 0.03448888 0.053792533 -0.010343398 -0.047167838
-0.005901631 0.055457763 0.003889953 0.054334067 -0.053433362 0.08030475 0.06382974 -0.049046345
0.013358182 0.016166437 -0.0876262 -0.042002626 -0.059472784 -0.039816827 0.08083779 -0.031130748
-0.08249762 -0.028936107 0.062583186 0.031379353 0.052151475 -0.038957477 0.0075530875 -0.032113984
0.07221018 0.027191 0.023732794 -0.034077477 0.07734086 0.028138395 0.041113663 -0.058760334
0.007744672 0.053281084 0.04710507 0.032833107 0.11078974 0.1028834 0.057951763 -0.00078993867
0.020325901 0.07819497 -0.026640704 0.059151392 -0.05034842 -0.020627014 -0.03203346 -0.03707701
0.004005787 -0.052196987 0.05632034 0.020533944 0.04468423 -0.032404244 0.06962561 -0.001048291
-0.021169078 -0.028007021 0.046909064 0.059899934 -0.010853824 0.030987304 -0.046883985 0.046207584
0.082532644 0.092543066 0.02955173 0.016134828 -0.085291535 -0.043951616 0.03178028 -0.028886525
0.044639293 0.010790454 -0.033006515 -0.015610909 0.06481569 0.023376914 -0.009009593 -0.051513463

conv2.bias f4 [20]
00000000: 657e 90bc 5999 19bd a311 0bbb f8cd 6fbd
00000010: c23a 7f3c 8e05 993d b0d8 95ba 57a6 863c
00000020: 48c1 9739 c60b 6c3c 469e 38bd 3912 0f3d
00000030: cba7 5fbd 5307 233d 9b5d ffbb 314c bcbc
00000040: 39a8 44bd 6ff6 583d 47a2 cdbc e396 40bd
-0.017638395 -0.03749976 -0.002122023 -0.058546036 0.015577974 0.074717626 -0.0011432376 0.016436739
0.0002894497 0.014407104 -0.045072816 0.034929488 -0.05460338 0.039801907 -0.007793141 -0.02298555
-0.048011992 0.052969392 -0.025101794 -0.047018897

fc1.weight f4 [50, 320]
00000000: e4d0 2bbc c305 7cbd 3af5 25bc 4714 c23d
00000010: ab99 16bd 843e f8bb ca1f 44bc effe 073d
00000020: 1de2 d03d 9eef 90bc 5442 3ebd 6d46 0abd
00000030: 681a 0ebd d3f4 c13c 8560 85bd dc33 3fbd
00000040: 6810 d03a 11b1 423c 2aee d2b8 c330 1c3c
00000050: 31ca 57bd 082b 71bd d658 6bbc e17b 70bc
00000060: f60a 94bc 551d fa3c 3b94 013c a3d2 20bd
00000070: 8fd7 df3d 7df2 0b3d ad8a c63c 1eaf c3b9
00000080: 1d9f 84bd 8990 2bbd 96a8 483d fe95 cf3d
00000090: 6a93 823c 29dd 1d3c 3ac5 843d 5d4e ac3d
000000a0: db13 363d 38ac c6bc 3807 5c3d 639c 3abd
000000b0: ec9c 3abd f489 85bd f453 1cbd e301 ccbd
000000c0: 8244 483d 6d62 4c3d be6d 46bd 7a3f afbc
000000d0: 0ae8 a93c 8ff0 1dbd 5347 6b3c 77a1 edbc
000000e0: 46d7 74bc 5293 22bd 5a32 fc3c 7af5 023d
000000f0: 617e 473d 1214 963c abbf e1bb acc8 653d
00000100: 546d cb3c 9877 7f3c ae39 893a 4397 383d
00000110: cd44 cc3d 0080 4e3d 685f 863a b8e0 c5bb
00000120: 6891 1ebd 0d52 33bc 631b 0bbc d6e0 eabc
00000130: 4c7d fbbb 9902 c6bc f0f7 91ba 83bb cdbd
00000140: 1019 d13b fbfc 89bd ef5b 5a3d 6962 983d
00000150: f5b9 02bc 47fd 223d 9904 2b3c 3482 fe3c
00000160: 2d8e c63d e123 98bd c01f cdba 4d48 7f3d
00000170: 7e39 2ebd 086e 7cbd 73a7 e7bc 80c3 73bd
00000180: 5b71 503c 6eed 813d 6224 5ebd d344 bfbc
00000190: fced c33d 42a1 e73d 5084 8c3c e0e8 5c3d
000001a0: 2b2f 19bd 601a 2abb 6dd6 dabc c99c 12bc
000001b0: 77ac b6bc 15e4 dd3c d7bf f1ba b12c c8bd
000001c0: a6bb 22bc f8fa df39 36e6 4e3c 6fa2 433d
000001d0: 28fe d03c 21d2 f93c d094 3fbd 3760 01bd
000001e0: 1f5a f23c 4cca 35bd e65e 0cbd 2b72 d53b
000001f0: 7ba2 16bd 4fa3 26bd 28aa be3b fe42 813d
00000200: 8ee0 1fbd 4a1a 55bd c5cf cabc 4c21 ce3c
00000210: 4ced 1c3d a91c 8bbc 96be 2bbd e286 88bd
00000220: 9f44 1abc 863b 053e bd7a be3c 0a40 803c
00000230: 1a86 193c 6d12 9f3d 9638 45bc 6366 3bbd
00000240: 565e 033d 1262 19bd 29b8 65bd 448e ec3b
00000250: 3300 29bd 0247 823c 7e41 53bd 12a4 043d
00000260: 9cfe 333d c2f1 1d3e e9e7 2fbd df1b 4e3c
00000270: a61c 023d e5ad 133c 2f3a 61bd 7482 f4bc
00000280: 1a59 013d 5266 363d 22c4 2fbd 9b23 93bc
00000290: 66b6 3dbd feba 2fbd 0c17 b5bc 3e98 0bbd
000002a0: 8039 fb3b 32f5 773c dac3 6c3d c2c2 dbbc
000002b0: 0e2b da3c 5e7a cd3d 8321 983d f975 3abc
000002c0: 5b33 0d3d 1a48 903d 28bd 62ba 47c2 483d
000002d0: 95f4 cbbc 24e4 b0bb 09b9 efbc afcb 4bbd
000002e0: b21b 84bc 074d d4bc 316f a3bc 92da 0abc
000002f0: 694a 773d d7ac e43c 3acf c0bc b21a 9f3b
00000300: 1078 863d 7684 d83c c381 dcbc c843 3e3d
00000310: acc5 f73c 50d5 49bb 57c1 83bb 510a ebbb
00000320: 4b51 ecbc 20df 4abb 022b 73bd 540c ef3c
00000330: 8dfe 7bbc 366d 453c a655 913d d346 893d
00000340: 45b3 813d d695 cb3d d8ee be3b 1ec9 553d
00000350: 1fd5 21bd 7d46 673d 816e 64bd b10a a6bd
00000360: 32b1 afbc 4ee0 9f3c 27c7 b2bd 39e9 30bd
00000370: 51d4 113d 7b45 1a3c 5e63 64bc 1cd8 c6bc
00000380: 775f 693c ec0f 613c 8a58 f43c 3e3d 2f3d
00000390: 638f 883c c537 76bd 4403 003d 603e 77bd
000003a0: a543 7cbd 231f 22bc 7e14 bdbc c498 8abd
000003b0: 105a 3ebd 3282 323d c759 933d ed9d cabc
000003c0: 35f2 603c fa15 b63c df09 b93b 11eb d73d
000003d0: 5d09 a4bd 01fe ddbc a246 593d cf53 b63c
000003e0: cd7b a33d b9ff 26bd dfa6 7fbd f07a 8abd
000003f0: 45f5 993d 4228 f4bc 5855 a7bc 838a 6cbd
-0.010486815 -0.061528932 -0.010129267 0.09476524 -0.036767643 -0.007575812 -0.01197047 0.033202108
0.10199378 -0.017692383 -0.046449974 -0.03375857 -0.03469315 0.023676312 -0.0651255 -0.046680316
0.001587403 0.011883036 -0.00010057942 0.00953311 -0.05268306 -0.05887893 -0.014364442 -0.0146779725
-0.018071633 0.030531565 0.007908876 -0.03926338 0.109297864 0.0341668 0.024236048 -0.0003732377
-0.06475661 -0.041885886 0.0489889 0.101360306 0.015939433 0.009635248 0.064829305 0.08413384
0.04445253 -0.024252042 0.05371782 -0.0455593 -0.04555981 -0.06520453 -0.038166 -0.09961297
0.04889346 0.049898554 -0.048444502 -0.021392573 0.020740528 -0.038559493 0.014360267 -0.029007656
-0.014943903 -0.039691277 0.030785728 0.031972386 0.04870451 0.018320117 -0.0068893037 0.05609958
0.024832405 0.015592478 0.001046946 0.04506613 0.0997406 0.05041504 0.0010251822 -0.0060387515
-0.03871289 -0.010944855 -0.008490416 -0.028671663 -0.0076748487 -0.02417116 -0.0011136513 -0.10045531
0.0063811615 -0.06737705 0.05331033 0.07440645 -0.007978906 0.039792325 0.010438108 0.031067945
0.09695087 -0.07428718 -0.0015649721 0.06232481 -0.042535298 -0.06162837 -0.028278088 -0.059512615
0.012722339 0.06344114 -0.054233916 -0.023348248 0.09566876 0.11310054 0.017152935 0.053933024
-0.0373985 -0.0025955662 -0.026713574 -0.008948513 -0.022299035 0.027086297 -0.0018444014 -0.09774149
-0.009932434 0.0004272086 0.012628129 0.04776233 0.025511816 0.030495705 -0.046772778 -0.0315859
0.029583989 -0.04438238 -0.03427019 0.006513854 -0.036776047 -0.040683087 0.005818624 0.06311606
-0.03903251 -0.052027024 -0.024757275 0.025162362 0.03831224 -0.01698144 -0.041929804 -0.06666352
-0.009415775 0.13010988 0.023251886 0.015655536 0.009370351 0.07767186 -0.012037417 -0.04575194
0.032072388 -0.037447043 -0.056083832 0.007219108 -0.041259956 0.015903 -0.05157613 0.032383032
0.043943986 0.15424255 -0.042945776 0.012579887 0.031765603 0.009013628 -0.05498713 -0.029847361
0.031579114 0.044531174 -0.042911656 -0.017961314 -0.046316527 -0.04290294 -0.022105716 -0.034080736
0.0076667666 0.015134143 0.057803966 -0.026826266 0.026631858 0.10033105 0.07428267 -0.011380666
0.034472805 0.07045002 -0.00086494023 0.049013402 -0.0248969 -0.00539829 -0.029263036 -0.049754795
-0.016126487 -0.025915636 -0.019950481 -0.008474963 0.060373697 0.027914448 -0.023536313 0.0048554773
0.06565869 0.02643035 -0.026917344 0.04645136 0.030245624 -0.003079731 -0.0040208506 -0.0071728607
-0.028847357 -0.0030955747 -0.059367187 0.029180683 -0.015380514 0.012049964 0.07096414 0.06702962
0.06333021 0.09940688 0.0058268122 0.052193753 -0.03950989 0.056463707 -0.055769447 -0.08107508
-0.021446798 0.019516136 -0.087293915 -0.04319117 0.03560287 0.0094159795 -0.013939707 -0.02427297
0.014243952 0.013736706 0.029827375 0.042783014 0.016669935 -0.06011178 0.031253114 -0.06036222
-0.06158795 -0.009895119 -0.02308106 -0.06767419 -0.04647261 0.043581195 0.07194858 -0.024733508
0.013729622 0.022227276 0.0056469287 0.10542882 -0.080095984 -0.027098658 0.053045876 0.02225676
0.079825975 -0.04077122 -0.062415 -0.0676173 0.075174846 -0.029804353 -0.020426437 -0.057749283

fc1.bias f4 [50]
00000000: f652 e53c 9569 283d 269e 953c d1c1 613d
00000010: 39d8 90bc a2c3 973d 9f69 af3d bb1e 1b3d
00000020: 5e8f a53c 8271 5e3d 76c3 f7bc 09e1 0f3d
00000030: cf0a 743d 46f1 1b3c fcc1 fd3c 5984 08bd
00000040: 5c9c a1bc a67b 8c3b e571 553d a535 62bd
00000050: 91b2 ecbb ebfb f83c 7dc5 06bd 3177 0c3c
00000060: f020 d639 f59d 9a3d 217f acbc a66e cabc
00000070: cead 953c 015c 2c3d a634 893d 32f3 60bc
00000080: 7f78 893d f65d 503d eb13 e03c 02fb 333d
00000090: 7300 a43d 21f2 c93b 06a6 643d 357a 2f3b
000000a0: 6b4a 6d3d 79ee 563d 41c0 4a3c f500 0c3d
000000b0: ff63 b1bc 7973 643d d516 843d 78ea 213d
000000c0: 2637 903d 2c0f 72bc
0.02799366 0.041116316 0.018263888 0.05511648 -0.017681228 0.07410361 0.085650675 0.037871104
0.020209964 0.05430747 -0.03024457 0.03512672 0.05958062 0.009517973 0.030976288 -0.03332934
-0.019727878 0.004287201 0.05211057 -0.05522694 -0.007223435 0.030393561 -0.032903183 0.008573339
0.000408418 0.07549659 -0.021056714 -0.024710964 0.018271353 0.04207993 0.06699495 -0.013729857
0.06712436 0.050870858 0.027353248 0.04394055 0.08007898 0.006162897 0.055822395 0.0026775722
0.0579323 0.05247352 0.012374938 0.0341806 -0.021654127 0.055774186 0.06449667 0.039530247
0.07041769 -0.014774125

fc2.weight f4 [10, 50]
00000000: e239 56be 2742 01be 7f15 fe3d 927c 56be
00000010: 4bc7 1abe 42ef 01be 9b15 bc3d 01a6 8a3e
00000020: fa85 2b3e eabd 503e 2b3e 04be 838f 44be
00000030: 6c57 84be 8cfc 67bb 7c3d 8a3c 18f9 873c
00000040: e01a 4fbe e0b8 1c3e 33da 8fbd 6da8 09be
00000050: e3f0 86bd af2d 363e 123f f03b e5e9 29be
00000060: 8908 293e 1f13 113e ba16 83be 722a 6abe
00000070: 6c5c 9d3d 4cff 8f3d 9059 11bd c865 8bbe
00000080: c9b2 ff3d a707 5fbe 188a 673e a0e5 5d3d
00000090: de72 8bbe 5328 3d3e 522d 65be a9e2 903e
000000a0: 4410 33bd 0871 523e 5855 37bd 5198 8e3e
000000b0: c88d f2bd fc01 eabd 5be1 a8bd 7936 cebd
000000c0: 309c 9ebd d611 8cbd fb4e 423e 8635 373e
000000d0: d26e 8bbe 1c3f 92bd dffb 0abe 74c3 8c3e
000000e0: 6f66 1a3e 3afe 28bd 74bd 39be 2065 8bbd
000000f0: 4948 143e a367 653e 0f73 78be 8a63 653e
00000100: edfd 23bd cc92 493e 95aa 17be 25af dfbd
00000110: 4e88 86be 9762 04be ce91 0cbe 8a65 81be
00000120: 900e 9ebd a11a da3d f393 123e e21a a1be
00000130: 0a31 1abd 923a 8cbd 0a5b 45be 2617 9d3e
00000140: 9d5c ebbd 969e 833e e0cb 2bbe 00df 37be
00000150: 8169 4d3e 6b40 0bbd 0c30 f93d 9a03 fabd
00000160: ac1e f83d 5778 5ebd d9e3 8e3e 16dd 10bd
00000170: 7ccc 0abe 8095 0dbe 8055 e33d 7202 75be
00000180: 6bcd 30be 5bf9 503e 4c35 273e 029e aebd
00000190: ebe8 17be 7946 203e 8775 56be 3746 143e
000001a0: b512 293e 11b1 33bd 6ca2 633d 3e90 583e
000001b0: 7c9b 333e 163c fd3d 2e16 383e a051 6a3e
000001c0: 9cac 6abe 4093 d6bd ce9b 123d 82d0 623e
000001d0: 5806 0a3e 4ddf 063e 1e6c 9fbd 1f1c bdbd
000001e0: 806a 773e fd81 82bd 0e1a 00be 4f80 403e
000001f0: 8ae5 84bd 5669 84bd d47c 37be 891f 55bd
00000200: 6a54 f5bc 70bb 35be c052 853e c782 89bc
00000210: b1c9 92bd 7702 1abc 2012 99bd 6afc e1bd
00000220: 9cc2 03be e9f7 a9bd 2d28 65be a606 6e3e
00000230: eeec 873c 80ee e43d 1a3a e4bd d9d5 4a3b
00000240: b886 4c3e 0bec f7bd bcd2 3ebe f784 0a3e
00000250: 744d 1c3d 3811 1d3d 53a4 a7bd 3835 44be
00000260: 7400 31be 96e1 b13c 8d70 313e f7db 703e
00000270: d23f 9abc 2e1a 03bc b813 cd3d d9e8 813c
00000280: 84c5 343e 229c 77bd f230 383e a6f4 07bd
00000290: cda2 e2bc 4877 493e 68e1 373e b7ba 023e
000002a0: 2ee1 a2bd 325f 9ebd 6c72 1abd cbc1 6f3d
000002b0: 145d 913d 09d8 003e d3bf 1e3e 6000 c33d
000002c0: debe 3b3e c819 863e f55a babd fef8 06be
000002d0: 9c35 eb3b 7e95 a4bd 0ada fd3d e8d4 08be
000002e0: 2330 61be bf2e 2d3e 35ee 063e 23d1 1cbe
000002f0: 59e4 6d3e 9988 fbbd 4bd1 ecbd 3372 dcbd
00000300: c0ad 5cbd 6d48 56bd cd3b 463e 58f3 6d3a
00000310: 9f5c e0bd 22b4 06be 414c 3cbe ea1b 65bb
00000320: 7545 383e 8a7e 0f3e 2b53 5b3e 416a 0d3e
00000330: 6425 303c 3d9b dbbd c213 57be 37cd 3bbc
00000340: 7591 47be 22a2 f9bd 988a 1ebe 95d8 dcbc
00000350: a050 d33d 95ed 5abe f8c0 0ebc b25a a0bd
00000360: 8317 60bc f3a3 69bd 9b9e 353e 445e 643e
00000370: 7c0b 733e ae2c 8fbe 91cb 453e 3546 46be
00000380: cf5d 233e f86f 38be 6303 2f3e 8854 11be
00000390: 1d1a 04be 688b 73bc fb3c 4d3d 1dba 823e
000003a0: eb1a 84be 1e87 ad3e fc29 8dbd 3005 43be
000003b0: 2808 11bd a796 603e 89fe dcbd 0f7c 10bd
000003c0: c137 953e 6803 9fbd 0ad9 5f3e f49d 8ebd
000003d0: a66b 76bd ba22 2b3e aef9 01be 3cdd 523e
000003e0: 8c0e 05be b7f8 b2bd 88f1 1b3e f253 cebd
000003f0: 50e8 433e f487 42be 9ba1 83be cf33 333e
-0.20920518 -0.12622891 0.12406444 -0.20945957 -0.15115087 -0.12688926 0.091838084 0.27079776
0.16750327 0.20384946 -0.1291434 -0.1919537 -0.25847948 -0.0035398332 0.016875021 0.01659827
-0.20225096 0.15304899 -0.0702404 -0.13443156 -0.06588914 0.17790864 0.0073317373 -0.1659313
0.16507162 0.1416745 -0.25603276 -0.22867754 0.07683644 0.07031116 -0.035485804 -0.2722609
0.124852724 -0.21780263 0.22611272 0.054174066 -0.27236074 0.18472414 -0.2238057 0.28297928
-0.043716684 0.2055093 -0.044759125 0.27850583 -0.11843449 -0.1142616 -0.08246108 -0.100689836
-0.07744634 -0.068393394 0.18975441 0.17891511 -0.27232987 -0.071409434 -0.13572644 0.2749287
0.15078138 -0.041258074 -0.18138677 -0.068063974 0.144807 0.22402816 -0.24262641 0.22401252
-0.040037084 0.19684905 -0.14811166 -0.10922078 -0.26275867 -0.12928234 -0.13727495 -0.2527278
-0.07717621 0.1064961 0.1431425 -0.31465822 -0.037644424 -0.06847109 -0.1927301 0.30681723
-0.11492274 0.2570693 -0.16776991 -0.17956161 0.20059778 -0.03399698 0.12167367 -0.12207718
0.12115225 -0.054313984 0.2790821 -0.035367094 -0.13554567 -0.13826561 0.11100292 -0.23926714
-0.1726586 0.20407622 0.16328925 -0.08526231 -0.14834945 0.15651883 -0.2094327 0.1447991
0.16511042 -0.043870036 0.05557482 0.21148774 0.17539781 0.12364976 0.17977211 0.228827
-0.22917408 -0.104773045 0.03579312 0.22149852 0.13478982 0.1317112 -0.077842936 -0.09233879
0.2416172 -0.063724495 -0.12509939 0.18798946 -0.064890936 -0.06465404 -0.17918712 -0.052032027
-0.029947478 -0.17747283 0.26039696 -0.016785992 -0.07167376 -0.009400002 -0.0747416 -0.11034472
-0.12867206 -0.08299238 -0.22378607 0.23244724 0.016592469 0.11178303 -0.111438945 0.0030950217
0.19973266 -0.121055685 -0.18635076 0.13527285 0.038159803 0.0383465 -0.08185639 -0.19160926
-0.17285329 0.021714013 0.17328091 0.2352141 -0.01882926 -0.008001847 0.10013527 0.0158581
0.17653471 -0.060451634 0.17987421 -0.0331923 -0.02766552 0.19674408 0.1795708 0.12766539
-0.07953106 -0.07733001 -0.037706777 0.058534425 0.07097831 0.12582411 0.15502863 0.09521556
0.18334529 0.26191545 -0.0909938 -0.1318092 0.0071780216 -0.08036326 0.12395103 -0.13362467
-0.21991019 0.16912363 0.13176806 -0.15314154 0.23231639 -0.12281913 -0.11563357 -0.10763969
-0.05387664 -0.052315164 0.1935875 0.00090770936 -0.10955166 -0.13154653 -0.18388464 -0.0034959265
0.17995246 0.14013115 0.21418445 0.13810064 0.010751102 -0.10722969 -0.21003631 -0.011462501
-0.19489081 -0.121891275 -0.15482557 -0.026958743 0.103181124 -0.21379693 -0.0087129995 -0.07829799
-0.013677481 -0.05704112 0.17736284 0.22301584 0.2373485 -0.27963775 0.19315936 -0.1936272
0.15953754 -0.18011463 0.17091136 -0.14192402 -0.12900586 -0.01486478 0.050106984 0.25532618
-0.25801787 0.3389215 -0.068927735 -0.19044948 -0.03540817 0.2193247 -0.10790736 -0.03527456
0.291441 -0.077643216 0.21860138 -0.06963721 -0.060161255 0.16712466 -0.12692901 0.20592207
-0.1299383 -0.08738845 0.15228856 -0.10074605 0.19131589 -0.18997175 -0.25709233 0.17500232

fc2.bias f4 [10]
00000000: a599 503d b536 313d 0492 643d f702 e3bd
00000010: b0b7 ddbd b026 37bb 6112 d1bd 07e6 12be
00000020: 5b3c 4e3e 033b 0c3e
0.050927777 0.043265063 0.055803314 -0.1108455 -0.10826051 -0.0027946644 -0.102085836 -0.14345561
0.20140211 0.13694386
